ode_pattern_model.pth (torch, 387507 bytes, 9 tensors)

generator_embed.weight f4 [1, 32]
00000000: a2bf c439 1355 d2be c357 5c3b 5ef8 6cbe
00000010: 2e3d adbb 80a3 8b3b 174c bdbb 635d abbb
00000020: 5825 cd3e b458 62b8 609e e03a 9241 f4bd
00000030: 4120 55ba 8ef5 55be 107e 363b 3071 343a
00000040: a167 26bf 062f 5bbf bc0a e93f 7c60 113f
00000050: 90e6 90bb 413a b73f e93c 23bb 3336 da3b
00000060: 0147 84bf 436f f73e cd01 08be db8f 12bf
00000070: b67d d33d 95ca 9a3b 5f46 d7ba bd78 6ebb
0.0003752681 -0.4108053 0.0033621646 -0.2314162 -0.005286834 0.004261434 -0.005776893 -0.0052296384
0.40067554 -5.396521e-05 0.0017137043 -0.11926569 -0.00081301114 -0.20894453 0.0027846135 0.00068833213
-0.65001875 -0.8561863 1.8206401 0.5678785 -0.0044220164 1.4314653 -0.0024908131 0.006659293
-1.0334169 0.48327073 -0.13281937 -0.57250756 0.10326712 0.0047238567 -0.001642417 -0.0036387884

function_embed.weight f4 [17, 64]
00000000: f30f 81bc d047 123f 091e f8be ee8f 5a3e
00000010: 05af 98bc 67de eabb 7fb6 37be 500a cc3e
00000020: b842 b03d 7aa6 c4be 4f27 50be 9cf1 493e
00000030: b0a4 d9be 8f06 0cbd cf0d 6dbf b19f c2bd
00000040: 86e1 083e 2c19 3cbe 0f2a 97bc 7ff8 a23d
00000050: 8972 32bd 2b03 23be 5aae d13d 4611 a53e
00000060: 45be ab3e d0e0 3fbe 4332 55bc 016e e3be
00000070: 8ed6 ba3e 6d40 e0bc 8d12 8d3d 04f8 ce3e
00000080: b4e1 4e3e a0a8 bdbb 5448 7ebe b39b d83b
00000090: a8f9 5b3e cee2 623c 9f0a f9be f141 fbbd
000000a0: 7e7f cbbc 4ab0 4abd f211 253f 60f6 6f3c
000000b0: 6680 293e 7101 093e b311 54be 871d 7cbe
000000c0: 985a c1be d516 083d 41b5 bcbe 12e3 b6be
000000d0: 8029 f43e 6ac7 483e d1a3 233e 0294 4fbe
000000e0: 8d76 aa3e 3daf d63d 8afa f1bd 737a be3e
000000f0: 2d19 0cbf a9ef f63e 2bf4 7a3b 3d91 f9bc
00000100: 5df6 2bbd 4007 ea3e 22de c63e 0a18 4e3e
00000110: 1267 25be 45d4 6abb 0ef5 83bb 7a18 a4bc
00000120: 5718 d33c 5dc4 9c3d 23d9 1fbe dd09 61bd
00000130: f2bb eabe 6098 f9bd 49d4 02bf a9d3 46be
00000140: bfb2 b2bf 2c7c c6be 8ea2 843d 7eda 043f
00000150: affe 49bd ef2f 5fbd 9e4c 6e3c 72a7 aebe
00000160: e4e3 763b 87ef 16bd 3b2d 29bc 410c 803f
00000170: 8b4b 6d3d 9361 df3e 92f4 0b3e 0c6f 2d3e
00000180: 44c9 77bd 311b fa3b 99cf 2dbb 25b3 223f
00000190: 27ef 063f c2b6 24bb 2785 d3be 77b2 563e
000001a0: d239 5e3b f95b 2a3d 9d75 0fbf 8a51 353e
000001b0: 7df7 0abf 4c70 f1be 16a8 263e 8497 363e
000001c0: 82bf a3be 2954 a7bc a0f4 2e3e 5afa 8a3e
000001d0: 992e 19be a5af 4e3e 4629 dfbd 77a7 52be
000001e0: 413a 64be 321a 6f3d d53b 6dbd cb27 1dbd
000001f0: f113 0e3f a064 02be 5367 e73c 46cf f9bc
00000200: 445d 75be e449 06bf af0c 2c3e 00a8 3e3d
00000210: 6d48 2abf 6678 1e3d f0a6 9ebc efc7 d9bd
00000220: 4a33 b3bd f667 053d 00c0 14bd 75d0 9b3c
00000230: fd94 3bbe a98c 7ebd e213 043f 60ee 88be
00000240: da3e 5b3e 2f43 21bd e64b 56be 6cf0 f2be
00000250: dfa5 2e3d bdbe 1bbe 4a9e 8bbb 6b74 bb3e
00000260: 95d7 3e3e 1ce3 95bd 731d b33a 6262 d83c
00000270: fa64 7f3c a328 bf3d 7e4e 58be af70 1cbe
00000280: 867c b63d 301d 0dba f390 c43c a10a 2d3e
00000290: ce99 b93e 7c2f 123c 282d 163e ca1c aabd
000002a0: 84bc 793c 774d 813c 4544 26bd c2c6 40be
000002b0: 7189 03bf 94d3 7cbe 03f3 d5bc 3995 373e
000002c0: 2209 9abd 7c78 9ebe a387 87bd a88f 533e
000002d0: f684 c83e 0983 d4bc ce6c 9f3c a749 6abc
000002e0: d017 033e 3517 cabc eec6 983f 5cd9 8e3d
000002f0: b98d 2bbe 7050 efbd 3011 e0bc 4b5d ccbd
00000300: 35ad 933e 9088 4c3d 9d47 a23e 363a b13e
00000310: f006 e93e ea78 bdbd 4068 903d 88a4 2abe
00000320: 8874 18be a978 8cbe 889c 87bb dbeb 61be
00000330: 6dbf 4ebe cf66 9e3d 3f6d cabe 19d4 04be
00000340: a3ee 323d 8f4f 233f 31e5 70be 3cdd b6be
00000350: d578 963e 348d b8bc 3cf3 0a3c 1159 f33d
00000360: 8dce 17be bea5 b13e 1ed3 ffbc 31c9 783e
00000370: e8b3 0f3d 0843 d1be bab6 aebf ddfc c13e
00000380: 8843 4cbe 1054 4bbc 3f6b 803e 6378 38bf
00000390: 4b16 f23e c28d afbc 1933 653e ad76 20be
000003a0: 2a0d 853d b975 893c 90bf 6e3a 668c b63e
000003b0: 4b5d 693d fd8f 2e3f cdf3 bc3d cb48 873d
000003c0: 7f2f d93d f3b0 6d3e c65a 98be f741 31bf
000003d0: cf0c 1bbf ea4c 50bc 3666 003f 9e0d 093e
000003e0: 48de 063e cdd9 87be 0b05 1dbf ce55 27be
000003f0: 4425 873d 54a5 fdbe 91e1 c2bc a2f6 1fbe
-0.015754675 0.5714083 -0.48460415 0.21343967 -0.018638143 -0.0071676257 -0.1794071 0.39851618
0.086064756 -0.38408262 -0.20327495 0.19721073 -0.4250846 -0.034185942 -0.92599195 -0.09503115
0.1336728 -0.18368977 -0.018452672 0.07957553 -0.04356626 -0.15919177 0.10238333 0.3223974
0.33543602 -0.18738103 -0.013012472 -0.44419864 0.36491817 -0.02737447 0.06888304 0.40423596
0.20203286 -0.005787924 -0.24832278 0.0066103577 0.21481955 0.01384802 -0.48640916 -0.12268437
-0.024841066 -0.04948453 0.6448051 0.014646143 0.16552886 0.13379456 -0.20709877 -0.24620639
-0.3776443 0.0332249 -0.36857036 -0.35720116 0.47687912 0.1960732 0.1598046 -0.20271304
0.33293572 0.10482643 -0.11815365 0.37202796 -0.54725915 0.4822972 0.0038292508 -0.030464763
-0.041982997 0.45708656 0.3884135 0.20126358 -0.161526 -0.003583209 -0.0040270155 -0.020031203
0.025768442 0.07654641 -0.15610175 -0.054941047 -0.45846516 -0.12187266 -0.5110517 -0.1941668
-1.3960799 -0.3876661 0.06476317 0.5189589 -0.04931515 -0.054489072 0.014544634 -0.34112126
0.0037672454 -0.036849525 -0.010325725 1.000374 0.05793337 0.4362913 0.13667515 0.16936892
-0.060494676 0.007632636 -0.0026521443 0.635546 0.5270867 -0.0025133346 -0.41312525 0.20966516
0.0033908975 0.04159162 -0.5603884 0.17706886 -0.5428389 -0.47155988 0.16275057 0.17831236
-0.31982046 -0.020425873 0.17085505 0.27144128 -0.14959182 0.2018419 -0.10896544 -0.20571695
-0.22287847 0.05837459 -0.05791839 -0.038368028 0.5549918 -0.12733698 0.028247511 -0.030494343
-0.2396136 -0.524565 0.16801713 0.046546936 -0.6651676 0.03868904 -0.019366711 -0.106338374
-0.08750017 0.032569848 -0.036315918 0.019020298 -0.18318553 -0.062145863 0.5159284 -0.26744366
0.21410695 -0.039370712 -0.2092739 -0.47449052 0.042638656 -0.1520948 -0.004260813 0.36612257
0.18636926 -0.07318708 0.0013665393 0.0264141 0.0155880395 0.09333923 -0.21123692 -0.1527736
0.0891047 -0.00053830724 0.023994898 0.16898586 0.36250156 0.008922454 0.14665663 -0.08306272
0.0152426995 0.015784008 -0.04059245 -0.1882582 -0.51381594 -0.24690086 -0.026116854 0.17928018
-0.07521273 -0.30951297 -0.066176675 0.2066027 0.3916394 -0.025941389 0.019461062 -0.014299787
0.12802052 -0.02466927 1.1935709 0.06975052 -0.16753282 -0.11685264 -0.027351946 -0.09978732
0.28843084 0.049934924 0.31695262 0.34614724 0.45513105 -0.09251578 0.07051134 -0.16664326
-0.14888203 -0.27435806 -0.004138533 -0.22062628 -0.2019021 0.07734453 -0.39536473 -0.12971534
0.043684613 0.6379327 -0.2352493 -0.35715663 0.29389063 -0.022528268 0.008480843 0.118822224
-0.14824887 0.34696764 -0.031228598 0.24295498 0.03508368 -0.40871453 -1.3649514 0.37888232
-0.19947636 -0.012410179 0.25081822 -0.72058696 0.47282633 -0.0214299 0.22382773 -0.15670271
0.064966515 0.016779767 0.00091075245 0.3565399 0.056973737 0.6818846 0.09226189 0.06605681
0.10604762 0.23212032 -0.29756755 -0.6924128 -0.6056642 -0.01271365 0.5015596 0.13384101
0.13170731 -0.26533356 -0.6133582 -0.16341326 0.06598905 -0.49540198 -0.0237892 -0.15621427

feature_net.0.weight f4 [256, 108]
00000000: 2ad7 79bd 86b1 90bd 3a34 9fbd 3b02 843d
00000010: 97f8 a13d a90e 0dbd 8eb7 123d a757 8e3d
00000020: fab7 a8bd c053 32bc d242 303d 5acd 6c3d
00000030: 50d8 073c 538c 803d 4075 17bc d030 8fbc
00000040: 20b0 d5bc f39a 31bd df2d 8b3d 2535 65bd
00000050: 40a9 5abc f69b 623d a3b7 963d 90e1 cabc
00000060: 27fc 9c3d a023 46bd 09c5 6cbd 0e54 383d
00000070: a2c9 6d3d 50ca 14bd 1f98 bc3d a604 063d
00000080: 1ffe 8a3d 7baa a7bd 7cdc acbc 1887 7bbd
00000090: e460 ce3c 00fa c1bb 357d 7dbd b2fa 2cbd
000000a0: b8cf b7bd c9ca ad3d d491 f53c 9899 6fbc
000000b0: cc82 a4bd f01b 82bc 745a f13c 3806 e0bc
000000c0: 788e 15bc 330c c33d b44c 0bbd 6516 973d
000000d0: 11f3 b0bd 1e4d 5a3d 0067 923b 414b b63d
000000e0: b89d 79bd 26e3 793d ebe0 9a3d f09f 17bc
000000f0: 7827 98bc 81c7 40bd 79b6 923d bee3 4b3d
00000100: 6504 b13d 2df3 813d 0083 3dba b00e d0bb
00000110: ca50 093d 7771 57bd cbec be3d ed53 913d
00000120: ef1c 9a3d f81e 83bc aa81 113d 1119 a9bd
00000130: 9050 4bbc 86f7 4e3d ccfc e3bc 155d 8d3d
00000140: 264a 013d 5822 79bc ba1a 733d db15 bd3d
00000150: 6c28 85bd de9b 213d 600b 973b 6f9a b23d
00000160: e4bf b23c af18 7ebd d44c efbc d4dd c53c
00000170: c82f ecbc 0ea6 4c3d 1647 623d 3299 0e3d
00000180: 3879 11bc 0e4a 02bd 83de 45bd cf01 bebd
00000190: f4ce a43c 3326 a6bd cbbd 73bd 3bdf 9a3d
000001a0: ca96 383d 90e1 f13b 1963 ae3d 74b6 7fbd
000001b0: ac3d 03bd dcd1 9e3d f8a7 083d 44ad c3bd
000001c0: b2d7 91bd fe1a 9bbd f0d8 87bc 44e0 5abd
000001d0: a080 ea3a e026 8d3d a1ac 573d 526a 933d
000001e0: 7765 7f3c 3b71 d2bc 98f9 6e3c 66a6 8e3c
000001f0: c4ff 833c b63b f5bc 19dd acbd eac2 8a3d
00000200: 841f bdbd 7c34 1ebd 7415 b0bc e7ed c73c
00000210: d46c 1abd 80de af3d 1c3e 8f3d 0307 aaba
00000220: 6ea2 49bd 0280 d53c a523 2f3d 1c46 86bd
00000230: 8a92 e93b 9a2e 3f3d e458 65bd 85b6 9c3d
00000240: 5490 b43c ba47 1b3d 5844 243d 1ed9 bc3d
00000250: 8a9d 483d 7aeb 2f3d e3a6 a1bd 3ab6 543d
00000260: 2f25 0d3d 1c4d 81bd de2f 86bd c933 acbd
00000270: b17b 8cbb 649d b2bd 3618 9d3d f58b cbbd
00000280: e31d a0bd 1026 873b 26b1 9bbd 3fdc 4a3d
00000290: c733 64bd d41b 45bd 96e3 593c 3c9b 3a3d
000002a0: e667 46bd 22ca 463d 6270 71bd d28b b63a
000002b0: 265e c6bc 2e7e 423d 782b 9dbd 8806 613d
000002c0: e5e5 6d3d d6e8 88bd 9dcb abbd 00fd 863d
000002d0: 0fcd 8c3d 2a59 25bd 8bf1 6e3d fd47 6cbc
000002e0: 2adb 7abd 48df b03b a106 aa3c 5343 3abd
000002f0: 7bb0 bfb9 df46 a6bd b9d3 b8bd ce91 82bd
00000300: f654 3ebd 254a 053d 1769 8a3d 08ee bf3b
00000310: 28b9 b5bd 1b9e 16bd ec88 c53a 5c8f 343d
00000320: 4828 6b3d bc6b ad3d cbf7 563d 31d1 a13d
00000330: ff9d 923d a905 47bd 9f80 57bd 666b 133c
00000340: 7ede 923d 2374 7f3d f442 793d 9fb0 b6bc
00000350: 3bee 6dbd 34f6 433d e0b9 34bb 297c 5a3d
00000360: b10a 173d 5e8f 0a3c 4741 32bc e60c 38be
00000370: 04ac 58bd e0e9 4bbd 408b 17bc 12cd 15bc
00000380: 5555 98bd df25 b83d 5526 673d c3ad a1bd
00000390: 3905 13bd f676 1a3e 8e7d 1b3b 36a1 2b3d
000003a0: 76b1 08bc 4170 103d 8461 b73d 9ecd 783d
000003b0: 902e 1ebe 6291 423d 0c8b 1d3c 4460 41bd
000003c0: 49c3 adbc 515d 8b3c 12ff 613d e7f6 d03d
000003d0: bd14 b53c 8868 0b3b cb0d e5bd e326 15be
000003e0: 0b5f c13d f2b1 2fbe f2e1 ebbc 0694 9fbd
000003f0: 4f71 3ebc fddc 273c fdcd c43d 948c 2d3d
-0.060996212 -0.0706511 -0.07773633 0.06445738 0.07908743 -0.03443781 0.035819583 0.06950312
-0.08238216 -0.010884225 0.043032475 0.057813026 0.008291319 0.06276765 -0.009244263 -0.01747933
-0.02608496 -0.04336066 0.067958586 -0.055958886 -0.013346016 0.055324517 0.07359245 -0.02476576
0.07665282 -0.04837382 -0.057805095 0.045002036 0.05805362 -0.036325753 0.09208702 0.032719277
0.06786751 -0.081868134 -0.021101229 -0.061408132 0.025192685 -0.005919695 -0.061886985 -0.04223127
-0.08975166 0.08485944 0.029976763 -0.014624022 -0.0803276 -0.015882462 0.029462077 -0.027346715
-0.0091282055 0.09523811 -0.034008697 0.07377318 -0.08640111 0.0532962 0.004467845 0.08901072
-0.060941428 0.06100764 0.07562431 -0.009254441 -0.018573508 -0.04706526 0.0716371 0.04977774
0.08643416 0.0634521 -0.00072292984 -0.006349407 0.033524312 -0.052598443 0.093225084 0.07096086
0.0752505 -0.016005978 0.035524048 -0.08256734 -0.012409344 0.050529025 -0.027830504 0.069025196
0.031564854 -0.015205942 0.05935166 0.09232684 -0.065018505 0.039455287 0.0046095103 0.08720862
0.021820016 -0.06203526 -0.02921144 0.024153627 -0.028831378 0.04996305 0.055243574 0.034814067
-0.008878998 -0.031808905 -0.048307907 -0.09277689 0.020118214 -0.08112755 -0.059507173 0.07562109
0.04506568 0.0073816255 0.08514995 -0.06242986 -0.032041237 0.07754871 0.033363312 -0.09554532
-0.07121219 -0.07573508 -0.016582936 -0.053436533 0.0017891116 0.068921804 0.052654866 0.07198013
0.015588156 -0.025688758 0.014585875 0.01741333 0.01611317 -0.029935699 -0.084406085 0.06775458
-0.09234527 -0.03862427 -0.021494605 0.024405433 -0.037701443 0.085873604 0.06994268 -0.001297206
-0.04922717 0.026062015 0.042758603 -0.06556341 0.0071280645 0.046675302 -0.055992976 0.07652
0.022041477 0.0379102 0.04010424 0.09221099 0.048978366 0.042949177 -0.07893159 0.051931597
0.03445929 -0.063135356 -0.06552099 -0.08408315 -0.004287206 -0.08721426 0.076706335 -0.09938804
-0.078182004 0.0041244105 -0.07602148 0.04952645 -0.05571344 -0.048122242 0.01329889 0.0455582
-0.04843893 0.048532613 -0.058945067 0.0013927168 -0.024214815 0.047483616 -0.07674307 0.05493787
0.058080573 -0.06685035 -0.083884455 0.06591225 0.06875049 -0.040368237 0.058335822 -0.01442146
-0.061244167 0.005397711 0.020755114 -0.04547436 -0.00036561847 -0.08118986 -0.09024758 -0.06375466
-0.046467744 0.032541413 0.067583255 0.005857233 -0.088732064 -0.036771875 0.0015070713 0.04408203
0.057411462 0.08467814 0.052482408 0.07901228 0.071590416 -0.048589382 -0.052612897 0.008997774
0.07171343 0.062366616 0.060854867 -0.022301016 -0.058088522 0.04784222 -0.002757661 0.053341065
0.03687543 0.008457033 -0.010879821 -0.1797367 -0.052898422 -0.049783587 -0.009249508 -0.009143131
-0.07438151 0.08991598 0.05643304 -0.078944705 -0.035893653 0.15084442 0.002372596 0.04190179
-0.008343091 0.035263304 0.089541465 0.060742967 -0.1544745 0.04750193 0.009615671 -0.047210947
-0.021211283 0.01701227 0.055174895 0.10203343 0.022104615 0.0021272022 -0.111842714 -0.14565615
0.09441956 -0.17157724 -0.028794263 -0.07791905 -0.011623695 0.010245559 0.09609602 0.042370394

feature_net.0.bias f4 [256]
00000000: f43f df3c 6f87 0e3d 4140 13be 78dc 2fbd
00000010: f866 ca3c 24c8 9bbc 5e1c 283d d9a0 a7bd
00000020: ef16 02be c212 17be 76e1 35bd d726 dcbd
00000030: f042 18be 0b2f 38bd 813b c13d e035 b1bc
00000040: 91ff 6cbd 48be 183d 15ee 7fbd d877 0d3d
00000050: fe32 95bd af3b eebd bc5e 07be 1bff bc3d
00000060: 4ef3 9dbd 87e9 03be 8cec d8bd 11b9 45bd
00000070: a0f8 073b 6095 e63b 7ad4 763d 3317 ae3d
00000080: 5dab a13d c2f9 6bbd fd82 a8bd b35d b1bd
00000090: 9ae4 32be 54c9 70bd 93c1 1dbe 011e b93d
000000a0: 4047 a4ba 76e6 12be b8e6 5abc f9b1 be3d
000000b0: d29f c1bd 98d5 51bc c659 7c3d b2b2 cebd
000000c0: e57c 59bd b02d 06be 938f 42bc 54da 48bd
000000d0: 24b3 97bd d5b9 2ebd 2c42 1f3d b47d 02bd
000000e0: 55bf 273c de7f 1bbe f0e5 353c c044 29bc
000000f0: d023 48be e5eb 35be 16d7 25be 29c4 bfbd
00000100: aa77 1dbe 869c 403d dacb 253d a251 c3bd
00000110: 505d 29be 3066 d5bd c7b9 05be 9409 bfbc
00000120: 9595 d1bc f33d fdbc 9024 7a3c 5a78 c7bc
00000130: 2bfb c43d 8728 69bd 0a78 84bc 2254 113d
00000140: 3822 2dbc cd2e 0abe 3be7 62bd f8a5 edbc
00000150: b757 083d 3b79 67bd b826 11be a8c5 123c
00000160: 4cef 68be a0c6 eb3b cc1f f23c b628 4a3d
00000170: 0412 a3bd 4ec4 1dbd 713f a53d fcb5 e2bd
00000180: a844 42be 305d a83c 491f 23be a4d7 87bd
00000190: 0e02 4e3d 7157 bf3c aac6 efbd 75be 6ebc
000001a0: 04a8 31bd a59d 95bd 2d29 2cbd 3ac5 91bd
000001b0: 021a 00bd 4c3b e7bd 1489 09bd 2fe5 05be
000001c0: cd6e 1bbd bfa8 adbd f385 e2bd 6730 ab3d
000001d0: bf6a 0c3c f61e 7ebd c7b8 c0bd 605d 80bc
000001e0: 6f46 46bd a0fd 9a3c df81 b13d fb9c f8bc
000001f0: 1012 f2bc 7f03 54bd 48b0 b4bd 7c0e d4bd
00000200: d1a8 3cbe 6020 4bbd 978a b4bc 5414 1abd
00000210: f9a8 b53d 103e 813c 7156 b6bd 40d2 cbbc
00000220: a420 15be 6010 72bb d016 1bbe 40af 79bd
00000230: 2155 af3d 57f6 8f3d acfa 6dbd 83f2 37be
00000240: 925f e6bd 49fd 873d 6aa1 1dbe 4efe 2cbc
00000250: 0c09 9ebd e126 4ebc 1087 98bc 5046 10bd
00000260: 9801 67bc a14d c3bd 94c4 81bd 4e5e 3c3d
00000270: 78ee 84bc 368f c1bd fd01 81bd d338 19be
00000280: 1d86 a5bd b9af cebd 9de7 f5bd 5d60 dcbc
00000290: aec9 33bd 406c 633b bf9f 8a3d ec3f ddbc
000002a0: 15bf 0bbe f60b 87bd 8dd4 ebbd 719c b5bd
000002b0: ac25 9cbd 7e3f cbbd 008f 7bbc af0d 2bbe
000002c0: a567 2abe 3e8d 5c3d 00b9 cb3b d89a 08be
000002d0: 4a8f 9abd 8622 f0bd 7eb8 793d 3ba3 09be
000002e0: 4471 26be 89a4 45bd 2ee5 6fbd 053f 00bd
000002f0: 3e23 c6bd 0020 ba37 48d2 a6bc 49d9 e2bd
00000300: 0deb a73d b027 4dbe 1c7b eb3c 5e7c 4a3d
00000310: c9e3 41bd 0863 8ebc 5cc9 d83c 4e4e c9bc
00000320: 66be 00be 0171 bc3d 7003 80bc a07d 293b
00000330: 00fe 18ba 4bc6 42bd 07d5 c33d 43ea a13d
00000340: 1063 adbd 2aa6 9fbd b6bf 0d3d 8889 29bd
00000350: c8d6 33be 6685 113d 25a3 9e3d 4236 383d
00000360: c48a f9bd f927 68bb f5f7 bd3d f9da ddbd
00000370: 2f82 863d d034 9e3c d982 94bd f98b 02be
00000380: 52e5 0cbc 22dc 07be bdae 5dbd 48b3 06bd
00000390: 713b b73d 001c 96bd 1049 923c ce12 493d
000003a0: 86a6 04bd fa09 3ebd 7edf 84bd c076 17bc
000003b0: e514 2dbd 61c5 29bd ba8e 5fbd eed8 14be
000003c0: 7034 9fbd dac1 c8bd 08bb da3c 28ba 4f3c
000003d0: 9b1b c03d e042 953b 52f7 3abe a510 5abd
000003e0: 35a0 aa3d 1169 873d 70c8 1dbc 9a9c 32bd
000003f0: 00c6 8f3a d016 cdbd 40c1 263b 6ac3 87bd
0.027252175 0.03479713 -0.1437998 -0.042934865 0.024707302 -0.019016333 0.041042678 -0.08184976
-0.12704061 -0.1475325 -0.04440447 -0.107495956 -0.14869285 -0.04496674 0.094351776 -0.021632135
-0.057860915 0.03729084 -0.062482912 0.03453812 -0.072851166 -0.116324775 -0.13219732 0.09228345
-0.07712422 -0.12882052 -0.10591993 -0.048272196 0.0020747557 0.00703685 0.060261227 0.08500519
0.07894013 -0.057611234 -0.08228109 -0.0866045 -0.17470017 -0.05878575 -0.15405874 0.09038926
-0.0012533441 -0.14345726 -0.013360672 0.09311289 -0.094543114 -0.012807272 0.061609052 -0.10092677
-0.053097624 -0.13103366 -0.011875051 -0.04903634 -0.07407215 -0.042657692 0.038881466 -0.03185816
0.010238488 -0.15185496 0.011102185 -0.010331333 -0.19544911 -0.17765768 -0.1619533 -0.093635865
-0.1537768 0.047024272 0.04047761 -0.095370546 -0.16539502 -0.10419881 -0.1305915 -0.023319997
-0.025584022 -0.030913329 0.015267506 -0.02434938 0.09618219 -0.056923416 -0.01617052 0.035480626
-0.01056724 -0.13494416 -0.0553963 -0.029009804 0.033286776 -0.0565121 -0.14174926 0.008958258
-0.22747535 0.007195309 0.029556178 0.04935523 -0.079624206 -0.03851729 0.08068741 -0.11069867
-0.18971503 0.020552248 -0.15929903 -0.06632927 0.05029493 0.023357125 -0.11707814 -0.014571776
-0.043373123 -0.07305459 -0.042031456 -0.07117696 -0.031274803 -0.11290607 -0.033577994 -0.13075708
-0.037947465 -0.084794514 -0.11060705 0.083588414 0.008570372 -0.062041245 -0.094102435 -0.015669525
-0.048407014 0.018919766 0.08667349 -0.030348292 -0.029549628 -0.051761147 -0.088226855 -0.10354325
-0.18423773 -0.049591422 -0.022038741 -0.037617043 0.088701196 0.015776664 -0.08903206 -0.024880528
-0.14563233 -0.003693603 -0.15145421 -0.060958147 0.08561159 0.070294075 -0.058100387 -0.17963605
-0.11248697 0.06640107 -0.15393606 -0.010558678 -0.07716569 -0.012582512 -0.01861909 -0.035223305
-0.014099501 -0.09536291 -0.063363224 0.045988373 -0.016226992 -0.094511434 -0.06299207 -0.14963083
-0.08082221 -0.1009211 -0.12007067 -0.026901418 -0.04389351 0.0034701973 0.067687504 -0.02700802
-0.13647111 -0.06594078 -0.1151515 -0.088677295 -0.07624373 -0.099242195 -0.015353918 -0.16704439
-0.166411 0.053845637 0.006217122 -0.13340318 -0.075468615 -0.11725335 0.06096696 -0.13441174
-0.16254145 -0.048252616 -0.058568172 -0.0313101 -0.09674691 2.2187829e-05 -0.020363942 -0.110766
0.08199129 -0.20034671 0.028745227 0.049435012 -0.047336373 -0.017381206 0.026463203 -0.024573471
-0.12572631 0.09201241 -0.01562664 0.0025862232 -0.0005836189 -0.04755239 0.09562116 0.0790601
-0.0846616 -0.07795365 0.034606658 -0.041390926 -0.17562401 0.03552761 0.07745961 0.04497362
-0.121846706 -0.0035424216 0.0927581 -0.10832781 0.06567799 0.019312292 -0.0725152 -0.12748708
-0.008599596 -0.13267568 -0.05412172 -0.03288582 0.089468844 -0.07329559 0.017857105 0.0490902
-0.03238537 -0.046396233 -0.0648794 -0.009244621 -0.042256255 -0.041448 -0.054579474 -0.14535877
-0.077736735 -0.09802599 0.026700512 0.01267866 0.09380265 0.0045550913 -0.18258408 -0.05323853
0.08331338 0.06611837 -0.009630308 -0.04360638 0.0010969043 -0.10014117 0.0025444776 -0.06629069

feature_net.3.weight f4 [256, 256]
00000000: 6e8a 7cbd 1e8e 46bd 8927 a13d 427c 0abd
00000010: 5847 67bd 3e66 103d 64db c2bc c876 ef3b
00000020: 5b62 e23d 211f 833d 500c 1c3d f25d 703d
00000030: 5700 833a 1802 a93c d450 3b3d 3804 d8bc
00000040: 2a65 f9bb 40ee 61bc d47d 4b3d 6c6a 4bbd
00000050: b075 1ebc 14e5 eb3c e119 713d b860 3dbc
00000060: c04c 5d3b 4747 cebc 0496 de3c 541f 1f3d
00000070: f464 b13c bc4d 12bd 5a5a 28bd c01e e0bb
00000080: 34f2 5a3d f2f9 223d 3374 573b 6039 503b
00000090: 7f6b 583d ab25 d53c 8b1c 313d 4c55 3c3d
000000a0: bcc6 09bd 1810 943d e4bf 0a3d 7441 9d3c
000000b0: 22e9 423d 081b 50bd 0060 87b7 df9f 0c3d
000000c0: a4db a43c b495 2d3d 944a 36bd e2e5 d13c
000000d0: 2a2f 6a3d 5dd9 c9bc 9a07 c23c 2037 a5bb
000000e0: aafa 593c dec4 00bd 0c39 f5bc f8dd 6b3d
000000f0: d81e 04bd eb89 c7bb c937 44bd 7280 5e3c
00000100: 66e5 e63c 4aef 1fbd 2ef1 4d3d 704d 193c
00000110: 2853 1bbd 3bd0 bb3d b0fb 823d 6bd4 22bd
00000120: 6c2a f53c 1823 6d3d 5452 5bbd 0fa8 3d3d
00000130: f02a 053c ab45 1b3d 2964 2a3c 009a 37bb
00000140: 0096 d03a c5d2 2b3d 1c06 163d e82e 20bc
00000150: 8eb5 563d 5e33 4bbd 8b6e 4a3d 8626 1f3d
00000160: 221c 96ba 4a98 703d 60f2 aa3c 44fb 37bd
00000170: dc29 143d 713b 46bd 1016 dfbc d681 d03c
00000180: c4a3 bf3b 44b6 a33c 7058 01bd c080 913d
00000190: f4fb 58bd f564 2ebd 801d fe3c 68d5 13bd
000001a0: c763 983d 32d0 4dbd 626e 603d 95cc a23d
000001b0: 706a e93b 9e61 7b3c a22a 483c e63c 253c
000001c0: c228 4c3c 942b 3abc b347 9b3d b28c 44bd
000001d0: 1142 cf3c d851 493c c78d 633d 64da df3c
000001e0: c78c 2abc 19ca c8bc 60d0 ce3b 50be ed3c
000001f0: e04d 1c3c c112 fb3c 32a8 deba 8457 c73c
00000200: 0bbe 2ebc 0015 a239 4e01 2f3d b91c b53b
00000210: 946a 50bd dad4 6ebd a77e f0bc 40a4 e03b
00000220: 95eb 4fbc 7693 76bd 88d0 3fbc f2b5 413c
00000230: 4c53 26bd 2838 1bbd 7c0b 4e3a 2a07 40b9
00000240: 17d6 4dbb d021 62bd 8ec1 843d 369d 6c3c
00000250: c22c d1ba e5a3 bd3b 40ea a23b d044 e5bb
00000260: 849f c4bc d3be a83c 34ac 8c3d 7cb5 bbbc
00000270: 1081 f43c 27c4 a13d 895d 693c 54dc fa3c
00000280: 1174 4c3d 464f e93c 82a0 c53b 3870 023d
00000290: 0000 c93c 989d 05bc 28c3 4a3d 761f 0f3d
000002a0: 4a87 07bb 0953 a93d 71bf 173d d2d3 58bc
000002b0: a893 7ebd 8fac 793d 6c85 f3bc e047 e1bb
000002c0: 8a23 d73c 569d 273d f83e 6e3c bee5 713d
000002d0: fe6f d2bc 80f0 e13c ea53 563d fccb aa3c
000002e0: 09e7 d83c fb3e e33b a05a 1cbb bf38 483c
000002f0: b9d8 cd3c a073 ee3b f871 0f3c 011f 703d
00000300: 3c82 f93c 052a d93d aa8a 52bd beb8 263d
00000310: ce5d 33bd a06f 0d3b 5215 373d 0da5 213d
00000320: 149e 923d 4438 ea3c 84d2 c4bc 02ab 6abd
00000330: f6fa 453d 6a35 09bd e0eb 8dbc 8c11 a73c
00000340: f2ef 623d a017 44bb 0a2a 1f3d 7662 403d
00000350: 311e 0abd baef 50bd 6628 483d 8a31 2fbd
00000360: a4a6 e23d 56df 873d 4eb4 0c3d 8e14 17b8
00000370: 0cde 0abd 3c0a 923c 625c 083d 713f f8bb
00000380: 8d7b 5b3d d8d9 4d3d b497 913d 28bb f33c
00000390: bc45 5b3d bc6e f93c 5485 693d 0045 d4b9
000003a0: 4b02 9dbc 31e2 16bc 3475 173d 5da1 803d
000003b0: 8c03 ab3d a841 54bd 03bf 3abc 32a9 2b3c
000003c0: e0d3 22bd 8080 1cbb 4616 7c3d f02a 3d3d
000003d0: 10f7 7abc c85e 75bd a4a0 aabc 7b5c 6abc
000003e0: 8a4a 383d 5290 51bd ceb5 0b3d d275 5b3d
000003f0: 1051 063d b5a0 fbbc e8fd 4cbc 6733 c43c
-0.061655454 -0.048475377 0.07868869 -0.033809908 -0.056464523 0.035253756 -0.023786254 0.007307861
0.11053916 0.06402422 0.03809768 0.058683343 0.0009994608 0.020630881 0.04573138 -0.0263692
-0.0076109366 -0.013789713 0.049680546 -0.04966204 -0.009671614 0.028795756 0.05886257 -0.011558704
0.003376767 -0.025180472 0.027171142 0.038848236 0.021654584 -0.035718665 -0.04110179 -0.006839603
0.05345364 0.039789148 0.0032875657 0.003177248 0.05283689 0.026018938 0.04324011 0.045979783
-0.033636793 0.07229632 0.033874407 0.01919625 0.047585614 -0.05080703 -1.6137958e-05 0.034332152
0.020124264 0.042379096 -0.044504717 0.025622312 0.057173885 -0.02463978 0.023685265 -0.005041972
0.013304392 -0.031437747 -0.029934429 0.057584733 -0.032255977 -0.006089439 -0.047904763 0.013580428
0.028185558 -0.039046563 0.050278835 0.009356841 -0.0379211 0.09170576 0.06395662 -0.03975336
0.029927455 0.057894796 -0.05354531 0.04630285 0.008127913 0.037908237 0.010399857 -0.0028015375
0.0015913844 0.041949052 0.03662692 -0.009776808 0.052419238 -0.049609534 0.04942183 0.0388551
-0.0011452476 0.058738984 0.020867527 -0.04491736 0.036172733 -0.04839653 -0.0272322 0.025452536
0.00584838 0.019984372 -0.03157848 0.07104635 -0.052974656 -0.04257675 0.031019926 -0.036092192
0.07440906 -0.05024738 0.05479277 0.07949177 0.007123284 0.015343098 0.012217196 0.01008532
0.012460889 -0.011362929 0.07582035 -0.04798574 0.025300058 0.0122875795 0.05555513 0.027325816
-0.0104095405 -0.02451043 0.0063114613 0.029021412 0.009540051 0.030648591 -0.0016987382 0.024333723
-0.010665427 0.00030914694 0.042725854 0.0055271056 -0.05088289 -0.05830846 -0.029357268 0.0068555176
-0.0126904445 -0.060199223 -0.011707433 0.011823164 -0.04060678 -0.03789535 0.00078599877 -0.00018313216
-0.0031408125 -0.055208027 0.0648223 0.014441779 -0.0015958773 0.00578736 0.0049717724 -0.0069967285
-0.024001844 0.020598805 0.06868783 -0.022913687 0.029846698 0.07898741 0.014243492 0.030622639
0.049915377 0.028480183 0.006031097 0.0318453 0.024536133 -0.008155249 0.04950252 0.034942113
-0.0020680004 0.08267791 0.037047807 -0.013234096 -0.062152535 0.06095558 -0.029726706 -0.0068750232
0.026262064 0.04092153 0.01454138 0.05905699 -0.025688168 0.0275805 0.05232612 0.02084922
0.026477354 0.006934998 -0.0023857728 0.012220561 0.025127755 0.007276967 0.0087552 0.058623318
0.030457608 0.10603718 -0.05140177 0.040703528 -0.04379063 0.0021581426 0.044698067 0.039464045
0.07159057 0.028591283 -0.024026163 -0.057291992 0.048335038 -0.033498205 -0.017324388 0.02039411
0.05540461 -0.0029921308 0.03885845 0.0469689 -0.0337202 -0.05100987 0.048866652 -0.042771854
0.110669404 0.06634395 0.03435164 -3.602035e-05 -0.033903167 0.017827146 0.033291228 -0.007575922
0.053584624 0.05025658 0.07109013 0.029752329 0.0535333 0.03044831 0.057011917 -0.000404872
-0.019166132 -0.009209202 0.036977008 0.062807776 0.08350286 -0.051820427 -0.01139808 0.010477351
-0.03975284 -0.0023880303 0.06154468 0.046183527 -0.015317693 -0.059904844 -0.020828553 -0.014304276
0.04499296 -0.051163025 0.03410893 0.05357916 0.03279215 -0.03071628 -0.012511708 0.023950292

feature_net.3.bias f4 [256]
00000000: 0470 4340 9caa 4d40 a34d 4140 dcbe ee3a
00000010: e8ce 3c40 2c71 25bb 3a15 4c40 6d37 4240
00000020: 1bb3 4f40 ee90 81bc edd7 4140 5b12 17bd
00000030: 4601 093d 95bd 4140 0fad 4640 90f7 4a40
00000040: ccb6 4a40 8e4f 4140 c24c 32bd bfbd 033d
00000050: 0b5d 4440 a5ac 8dbd 1339 4440 6466 0fbc
00000060: 2278 4440 a994 4840 ccc8 2fbd 3a45 90bd
00000070: f0d9 48bd 0bc5 9cbd 592d a3bd bb2d 4640
00000080: dfe6 4040 cb91 4940 b940 4840 f2e5 aebd
00000090: 8039 4140 5b4c 4340 d3cb 5140 e46e 4c3c
000000a0: d122 4840 7161 4340 3061 4040 b2ee 48bd
000000b0: b736 4340 bcd5 26bb e2a6 80bd 08c3 113d
000000c0: 69a6 3f40 7d19 3abd 08cd 543d 06c1 3b3d
000000d0: 31f5 4340 0b3b 4440 1e7b bc3c b5ac 3f40
000000e0: 34c4 9cbc e00a 7cbb 9bdc 773c ce73 9ebd
000000f0: f2b2 d63b 7778 b53c 5f4d 3e40 0246 4540
00000100: 6d4d 4640 015e 0d3d 3472 4740 9e3f 1f3c
00000110: a100 4b40 666c 123f 8d98 23bd 116a 0a3d
00000120: 3630 4340 c3be c6bc d570 09bc e3d9 993b
00000130: 263d 803b e747 04bd ef56 3d40 8de1 4c40
00000140: 7701 4640 afee 83bc 8f19 4740 2751 213d
00000150: 94b9 4b40 4b2e 4640 66a2 6a3b a9e6 9e3b
00000160: 9265 4640 bda4 fbbc 9e0c 3e40 ce79 3f40
00000170: e611 a9bc 506c 55bd 53be 52bd d6fb 87bd
00000180: f464 0bbb 8d6c 4340 e740 3c40 064e 4640
00000190: 335a 4440 de94 803a ec3e 4240 7b41 57bd
000001a0: 5a58 0ebd 09e4 4440 3bfd 83bd 2c6b 5abd
000001b0: 9385 473c 08e5 4840 afba 48bd 2e3b 66bd
000001c0: cbea a5bd f78e 4c40 b746 2b3d 4dd7 4840
000001d0: 4a5e 3f40 ef77 4e40 a49a 3f40 9aea 5240
000001e0: 799d 3a40 aba6 4c40 1788 4b40 6c88 83bc
000001f0: 3dd3 5cbc e2e5 81bd 8b3d 4440 5289 4240
00000200: 951f 5cbc d691 54bd 80f4 c63c 6233 f53c
00000210: 5f45 253c d40f 4840 492d 1140 f1ce 5c3c
00000220: 0d9f 4a40 d916 8b3c 58a7 63bc 4cea 4740
00000230: de4a 4240 b727 4540 6560 5240 4ed9 4140
00000240: 4f5b 4c40 2577 3d40 d404 21bd dcda ccbd
00000250: 8c90 4b40 c92c 83bd c80f 54bd eb53 4240
00000260: 9f6c 4040 e98e 4840 5458 ca3b f8df d6bc
00000270: 1b42 4340 76e0 6abd 5075 bcbc 49a4 cfbc
00000280: ae94 4d3d cb14 4440 48a2 abbb f98c 4440
00000290: 885f 4440 7853 4a40 108f 133d e126 4540
000002a0: 525b 5cbd 6b33 4340 9f16 3a40 3df8 b8bb
000002b0: be62 4340 db44 4440 ae73 4d40 eb6e 933c
000002c0: e492 993b 313a 603c c300 0cbd 2fb8 92bd
000002d0: fe44 4d40 245d 5fbd 979a 3d40 ab80 d13f
000002e0: 13c4 bdbb 1b2b 4d40 9a43 21bd 574f f7bc
000002f0: d6a1 533c 805d f33c 05e6 3f40 9442 56bd
00000300: 04dd f73c f2be 3f40 6bb8 4d40 bf1c 1a3d
00000310: 0178 4e40 7d51 24bb 59c7 4540 2a5c 4a40
00000320: d845 49bd faab 473d a084 4340 0620 4140
00000330: 0337 4a40 775e 3d40 af8b 4440 a39e 97bc
00000340: 08a7 3d40 9b74 4740 90e3 4640 4040 063d
00000350: c281 6c3c e533 7dbd 7c73 4d40 2559 4540
00000360: e549 4540 12f8 31bd 43fb 3f40 4b94 73bd
00000370: 59c0 4540 aa52 8abc 7f30 d5bc 94be 43bd
00000380: 69a7 a73c 2823 3c40 b3bc 4440 0044 66bd
00000390: fda3 3e40 7bdb 4040 e0c5 4b40 ec6e 4940
000003a0: ffce 4140 e723 4240 eb39 4040 9eaa 4440
000003b0: d9ac 4640 1290 a2bb b49b ab3c 26de 4440
000003c0: 5789 5040 37db 5140 1b9f 4640 fcb7 a8bc
000003d0: 7873 3f40 683c 363d 803a 0bbd 4fa6 99bd
000003e0: 0e63 3f40 73f0 4040 4f77 4040 b0b9 c8bc
000003f0: 11ff 4a40 a166 4a40 8bcb 4440 14f4 4240
3.053712 3.2135382 3.0203636 0.001821484 2.9501286 -0.0025244458 3.1887956 3.034633
3.2453067 -0.015816178 3.028804 -0.03688274 0.03344848 3.0271962 3.1043127 3.17136
3.167407 3.0204806 -0.043530233 0.032163378 3.068179 -0.06917695 3.0659835 -0.008752439
3.0698323 3.1340735 -0.042916104 -0.07044454 -0.049035966 -0.076547705 -0.07967634 3.0965412
3.0140913 3.1495235 3.1289504 -0.08539952 3.0191345 3.0515354 3.2780654 0.01247761
3.127125 3.0528224 3.0059319 -0.049055763 3.0502145 -0.0025456985 -0.0628183 0.035586387
2.9945319 -0.045434464 0.051953346 0.04583838 3.0618403 3.0661037 0.023007926 2.9949162
-0.019136526 -0.003845863 0.01512828 -0.07736932 0.0065520937 0.022152169 2.9734724 3.082398
3.0984757 0.034513477 3.1163454 0.009719757 3.1719134 0.5719665 -0.039940406 0.03379256
3.0498176 -0.024260884 -0.008388718 0.0046951636 0.0039135395 -0.032295134 2.958431 3.2012665
3.0938394 -0.016105024 3.110935 0.039384034 3.1832018 3.0965755 0.0035802363 0.004849274
3.0999494 -0.030718202 2.96952 2.9918094 -0.020638417 -0.052105248 -0.05145104 -0.06639831
-0.002126989 3.0535004 2.9414613 3.0985122 3.0680053 0.0009809991 3.0350904 -0.05255268
-0.034752227 3.0764182 -0.06444784 -0.053324863 0.012177843 3.138979 -0.04900616 -0.056208782
-0.08101424 3.196226 0.041815486 3.138141 2.99013 3.2260702 2.9938135 3.295569
2.9158614 3.1976726 3.1801813 -0.016056262 -0.0134780975 -0.06342675 3.0662563 3.0396314
-0.013435264 -0.051896892 0.024286509 0.029931728 0.01008734 3.125966 2.268389 0.013477073
3.1659577 0.016978668 -0.013894878 3.1236753 3.0358195 3.080549 3.2871335 3.0288882
3.193073 2.960397 -0.039311245 -0.100026816 3.1806974 -0.064050265 -0.051772863 3.036372
3.0066297 3.1337225 0.0061750803 -0.026229843 3.0509098 -0.05734297 -0.023005158 -0.025346892
0.05019062 3.063769 -0.0052378513 3.0711043 3.0683308 3.1613445 0.036025107 3.080498
-0.053798027 3.0500133 2.9076307 -0.0056448267 3.0529017 3.0667026 3.2101855 0.017997226
0.0046867 0.013685749 -0.034180414 -0.071640365 3.207336 -0.054532185 2.9625604 1.6367391
-0.005791196 3.205756 -0.03937111 -0.0301892 0.012917003 0.02970767 2.9984143 -0.052309588
0.030256756 2.9960294 3.214381 0.03762507 3.2260745 -0.0025072985 3.0902922 3.1618752
-0.049138874 0.048747994 3.0549698 3.0175796 3.1596076 2.9588907 3.0710256 -0.018508261
2.9633198 3.116492 3.1076393 0.032776117 0.014435234 -0.06181707 3.2101736 3.083566
3.0826352 -0.04344947 2.9997108 -0.059467595 3.089865 -0.01688512 -0.026024101 -0.04778917
0.02046557 2.9396458 3.0740173 -0.056217194 2.978759 3.013396 3.1839523 3.1473951
3.028259 3.0334413 3.003535 3.0729136 3.1042998 -0.004961022 0.020948268 3.0760589
3.2583826 3.2790048 3.103461 -0.020595543 2.9914227 0.0444912 -0.033991337 -0.07502424
2.9904208 3.0146759 3.007282 -0.024502605 3.171818 3.162514 3.0749233 3.0461473

verification_head.weight f4 [1, 256]
00000000: 35b7 91bc 9046 083e 1591 8b3d 4a09 b43c
00000010: 1116 923c 900d d93b 03f5 a2bc 2e09 8d3d
00000020: 2b81 b93c cb2e 25bc 29ed 3d3d 5fa4 febc
00000030: 53a1 953c abdc 8f3d 4bc4 7c3d 028e 2a3e
00000040: 2fb6 a93d b242 803c ec7b c63c a05b 6bbb
00000050: b577 1b3c c276 37bd ac2a e93c be7d 1dbd
00000060: 44c8 a8bb bad8 1dbc dca7 34bd 50f1 5fbd
00000070: 4c10 68bd 2e16 773d 77a2 853d 7385 2ebc
00000080: dda1 103d 60ff 94bc aea6 1cbc f294 be3c
00000090: 1f9b 463d 9e58 b7bb ccd1 d1bc 9210 47bb
000000a0: 670d 1ebc cd6e 253d 5a07 9e3d 537e 6a3d
000000b0: d50e 0ebd 88ee 2dbc 1156 e6bc ea03 b83c
000000c0: faee 953d 1449 de3b 802c 143d 77d5 9d3c
000000d0: 922b 843d 4e09 393d 5034 053d 8ac5 ec3c
000000e0: fc05 d4bc 2fa0 273d 5fa7 813d eede 8b3d
000000f0: d325 363d cb48 c33c 099e 813d 83eb 0cbd
00000100: 2056 703d b565 473d 0d4f 5dbc 51d7 a33b
00000110: f397 1dbc 90da 34bd 673e c2bc bed1 30ba
00000120: a8b1 423d 57d5 38bd a428 8bbc 5d95 843d
00000130: b9f7 6b3d a620 5c3d a723 533d 2b13 dfbc
00000140: 7d0a a33c ca03 5d3d 52c9 863d c0f7 55bd
00000150: ee6e 8f3d 538f 9c3d 55b0 2b3d d669 8d3d
00000160: b84b 43bc 991e 03bd e0b2 2b3d e863 453d
00000170: 3ea6 713d 26d0 403d a505 39bd ae96 c7bc
00000180: 350d a23c 413c 0a3c 2b98 8cbc 0798 a13b
00000190: d062 463d 04ca 19bd d30d 1abd 1e65 b9bc
000001a0: 37a8 df3b 44be 793d 11f1 193d 030a 5f3d
000001b0: fd44 03bd e805 8c3c 2bdc 16bd 88d3 4f3d
000001c0: c1b7 97ba 3ee2 173d eb1d 803c 09db 433c
000001d0: d768 5e3d 673b 053c 99f7 27bd c52e 063d
000001e0: 8a50 eebb 14d6 723d 5469 cd3c a398 703d
000001f0: 32bd be3b 562b 4d3d c130 cebc 1010 503d
00000200: 1e1e 033d c69c 6c3d 3abd df3c bcc5 05bd
00000210: 277f 0d3d 8b3b 1abb 34ce 18bc e3b5 7b3d
00000220: c690 a33d 33c5 4fbd 90b0 133d fa08 9f3d
00000230: cabd a03c dffd 363d 1b9c 9f3d dd3c 1cbb
00000240: 5d6d 283d 4605 953d 4e26 6c3d daef 823d
00000250: f7d1 2b3d e6f7 5abd e65e 4a3d 94d1 21bc
00000260: cf21 343d 7015 17ba 83e9 633b e0c4 503d
00000270: 3e8a 003d b72c 27bd e85f 49bd d760 243d
00000280: 836d 46bc b4de 963d 1f8d 473d 9969 d8bb
00000290: f153 48bc dd6a 01bc 2e21 c53c aa6f 833d
000002a0: 7b8d 5bbd e214 413d b03e ca3c 68ed fb3c
000002b0: 74cc 4b3c 2a4c a73c fece f53d 9211 5f3d
000002c0: f2c2 98bc f665 243b b42c 413d 93c2 593d
000002d0: bbdf b13c 0447 0b3c 942c 6e3d 63f7 283d
000002e0: 0290 ea3c e704 94bb 98ae 46bc 812d 3fbd
000002f0: 1484 04bd 06b8 143b 4a88 6c3d 14da 413d
00000300: 8124 ce3c cfc0 453d c569 70bc 3b5a 7e3d
00000310: 4d14 743d c687 3ebc 1e8b 7f3d b868 5f3b
00000320: e4f1 363d 41c7 95bc 85ae b6ba fec4 c5bc
00000330: d419 263e 5a9a 923c 60ab 003d 10a6 17bd
00000340: 617d 593d 905f 213d 5067 fcbb 066d 05bd
00000350: b931 40bb 0f8e 163c 8bb8 313c 21c3 f4bc
00000360: a8bd 5cbc 8aff 873d 71dc 653d e94e 35bd
00000370: 8713 dcbc 6a81 4d3d a34c a23b 62a4 2bbd
00000380: 3167 b3b9 dc73 2f3d 0e06 913d a148 323d
00000390: c371 993c 1599 2e3d baa1 a23d fb41 d7bc
000003a0: 988d 78bc ca74 3bbc 7f71 483d b6e8 a6bc
000003b0: 37eb 4cbb 05ec 33bd ff9c 3c3c 4370 533d
000003c0: c42c 9b3d b9b4 0c3d 234b a83c 3d63 a3bc
000003d0: 78c5 1cbd a82a 4f3d 1ec7 113d 8440 9b3b
000003e0: c625 4a3d 06f8 afbc 27f6 c93c 47d5 bc3b
000003f0: df17 6e3d 8f8d c13c 2a55 cabc c4fc bd3c
-0.017787555 0.13308167 0.068147816 0.021977086 0.017832788 0.006623931 -0.019892221 0.068865165
0.0226446 -0.010081957 0.04636875 -0.031084238 0.018265402 0.07024511 0.061710637 0.16655734
0.08286702 0.015656803 0.024229012 -0.0035912767 0.00948899 -0.04479099 0.02846273 -0.038449995
-0.0051508266 -0.009634191 -0.044105396 -0.054673493 -0.056656167 0.060323887 0.06525128 -0.010651934
0.035310615 -0.018188179 -0.009561224 0.023264382 0.04848778 -0.005595281 -0.025612734 -0.0030374867
-0.00964675 0.04038887 0.07716246 0.05724938 -0.034682114 -0.010615952 -0.028117212 0.022462804
0.07320972 0.006783614 0.03617525 0.019266827 0.06453623 0.04517489 0.032520592 0.028902788
-0.02588176 0.040924247 0.06330752 0.0682963 0.044469666 0.023838421 0.06328971 -0.03440429
0.058675885 0.04868098 -0.013507617 0.005000033 -0.009618747 -0.04415375 -0.023711396 -0.0006745121
0.047532707 -0.04512533 -0.016987152 0.06473801 0.057609294 0.053742073 0.051547673 -0.02723082
0.019902462 0.05395869 0.065813676 -0.052238226 0.0700358 0.076445244 0.04191621 0.06904952
-0.011919908 -0.032011602 0.041918635 0.04819098 0.05899643 0.047073506 -0.0451714 -0.024363842
0.019781688 0.008437217 -0.017162403 0.004931453 0.04843408 -0.037546173 -0.03761084 -0.022631224
0.0068254727 0.060972467 0.037583414 0.054452907 -0.032048214 0.01709266 -0.036831062 0.05073884
-0.0011575149 0.037080996 0.015639266 0.0119540775 0.0542992 0.008131838 -0.041007612 0.032759447
-0.0072727846 0.059286192 0.025074638 0.058739316 0.0058208937 0.050090156 -0.025169732 0.05079657
0.032011144 0.0577667 0.02731191 -0.032659277 0.03454509 -0.0023534026 -0.009326506 0.061452758
0.07986598 -0.050725173 0.036057055 0.07765384 0.019621748 0.044675704 0.07793447 -0.0023839988
0.041119922 0.072763965 0.057653718 0.06393404 0.041948285 -0.05345907 0.04940691 -0.0098766275
0.043977555 -0.00057633873 0.0034776635 0.050969005 0.031381838 -0.040814128 -0.04916373 0.040131416
-0.012111071 0.07366696 0.048718568 -0.006604385 -0.012227044 -0.007899013 0.024063673 0.064177826
-0.053601723 0.047139056 0.024688095 0.030752853 0.012438882 0.02042206 0.12002371 0.054460116
-0.018647645 0.0025085188 0.047161773 0.053164076 0.021713128 0.008500818 0.05814798 0.04125155
0.028633121 -0.004517186 -0.012126587 -0.046674255 -0.032352522 0.0022692694 0.057747163 0.047327116
0.02516389 0.04827958 -0.014673655 0.06209777 0.059589673 -0.011629051 0.062388532 0.0034089517
0.04466428 -0.018283488 -0.0013937509 -0.024141785 0.1622079 0.017895866 0.031413436 -0.037023604
0.053098086 0.039397776 -0.0077027455 -0.032574676 -0.0029326512 0.009189143 0.010847221 -0.029878201
-0.013472952 0.06640537 0.056118432 -0.044264708 -0.02686478 0.050172247 0.0049529835 -0.041904815
-0.00034218424 0.0428351 0.07081233 0.043526296 0.018731004 0.04262646 0.07941003 -0.02627658
-0.015170477 -0.011441419 0.048936363 -0.020374637 -0.0031268129 -0.043926258 0.01151204 0.051620733
0.07576898 0.034352038 0.02054364 -0.019944781 -0.03827426 0.05057779 0.035590284 0.0047379155
0.04935243 -0.021480571 0.024653507 0.0057627293 0.058128234 0.02362707 -0.024698813 0.023191817

complexity_head.weight f4 [1, 256]
00000000: fa09 573d 5c66 673d 62a4 833d 8f89 5fba
00000010: 2041 6a3d f09f 33bd 6393 793d b8e5 813d
00000020: 97ad 873d c4c0 b73a f819 6c3d 1168 84bb
00000030: 2b62 563b 8ae3 663d 006d 6c3d b89f 7b3d
00000040: e7c8 893d 1c4f 613d 7f1f b2bc b51b 02bd
00000050: 9df4 843d 268e 31bc 1a56 7a3d c990 fdbc
00000060: 8b48 6c3d bb01 833d dcbe 3d3d 232f 53bd
00000070: 077a f2bc 8f49 de3c 2e87 8a3c 66d0 813d
00000080: 0181 653d 3b37 823d 2407 743d 4a75 743c
00000090: cf69 833d ef79 5f3d 0b07 7c3d 4dbb c7bc
000000a0: b9cb 7f3d 5605 673d f29c 7d3d e20c 113a
000000b0: 97eb 803d a9fe b33c 9b43 0fbc 8929 87bb
000000c0: 8cb5 6d3d a6f6 99bc 5662 36bd 6d22 e438
000000d0: f570 753d 8a59 7d3d 0674 e4bc 5b89 753d
000000e0: f402 023d 0684 633b 2dc2 e0bc c47b b2bb
000000f0: dc8c 04bd a36f 17bc 0a4d 893d b310 7f3d
00000100: 15fe 883d f6e4 06bc 9709 683d 16aa 4dbd
00000110: f644 843d 27e0 213d 0ab2 ffbb 2376 44bc
00000120: 228b 703d 2341 c8bc feb4 543c f69c 153b
00000130: 1a63 33bd 1942 99ba d454 583d d01a 813d
00000140: d93e 6a3d c369 30bc 939d 653d 2291 e1bb
00000150: c755 7a3d fb52 6a3d 1f44 54bc d739 42bd
00000160: db50 673d 0b77 78bc 14b3 703d e4c2 663d
00000170: 3b0b fc3b 38e1 36bc c2ae 40bc 8c63 53bd
00000180: 98e1 1abd a0e1 7f3d 73e6 603d bfb0 723d
00000190: dc81 553d 09c4 46bc eb1e 7b3d 4e39 77bc
000001a0: 5636 ba3c 3f12 813d dec6 85bc 4783 733b
000001b0: 2d53 1cbd 13d1 823d a303 8aba dd06 f23b
000001c0: e1dc d2bc 66fb 7a3d 65fd 22bd 61a3 723d
000001d0: 5414 7c3d 6a18 663d d085 753d c20f 6b3d
000001e0: a861 763d d8ad 813d 9fd1 773d 2790 7bbc
000001f0: 2775 3d3b 46a5 313c ed39 7e3d 85c1 6a3d
00000200: c055 e9bb 6924 c43b f07c 903c 9f22 21bd
00000210: b538 46bd a1f6 873d 7b38 4d3d 8cdf 46bd
00000220: 1de6 7c3d 222d 0cbd 57d2 83bb 36ef 583d
00000230: 8075 853d fb26 813d e806 883d a90a 653d
00000240: c025 7a3d 930c 5e3d 45a9 59bc 68f4 88bc
00000250: 22b9 803d a91e fab9 af0c 36bd f225 493d
00000260: 9e57 783d 66fa 7e3d 16d7 0fbd cb56 b3bc
00000270: d01a 6c3d c304 2fbd cd9f 2f3b 5348 54bd
00000280: 8434 1cbd 7e7c 5b3d f838 24bd 29da 853d
00000290: 9876 813d e3c8 873d dd6d 06bc 2cf9 813d
000002a0: 17d4 f4bc 667a 6b3d 9edf 6d3d ad13 1fbc
000002b0: 9896 783d 1d0c 793d d9ca 613d 725c 0b3d
000002c0: ee0a 3c3b e155 a8bc 5efb 4bbd bad6 e5bb
000002d0: 83e2 813d d9e1 ad3b 45d5 733d edac 2e3d
000002e0: 4c53 0cbd 1b71 783d 6297 c6bc 348c 3bbd
000002f0: 3352 0bbd 6350 f4bc 823a 843d b117 41bd
00000300: 7520 8ebc 233b 7e3d ee54 833d 9d89 55bc
00000310: c9a9 693d 7f8e 02bd 0ff4 633d 43b7 5c3d
00000320: 2eb6 e6bc d3a8 04bc f1d5 753d 68b6 5e3d
00000330: f1db 793d 1f04 533d bd30 693d 42db cfba
00000340: 717a 693d 4803 613d 3845 643d e611 3bbd
00000350: 2dcf 7639 2b1a 63bb 3854 823d a18b 663d
00000360: 8e09 6c3d 80bc b6bc cc0c 6c3d 49f8 3fbc
00000370: 4508 7d3d 6f50 4e3c fc98 383d 073b 653b
00000380: c3b4 39bd 4697 753d 1600 5e3d e80f b0bc
00000390: 33aa 743d 38fd 733d 6106 793d 7dc6 753d
000003a0: ac39 733d 96c0 6a3d e673 763d a8f1 5b3d
000003b0: 5a05 643d 3b5f 7fbc 0b5a 89bc 2a45 843d
000003c0: 4325 6d3d f71f 823d f148 733d 1702 bfbb
000003d0: 13d9 843d a70d 9cbc 520e 2b3d 726e 08bd
000003e0: 7251 693d 23b8 5f3d 637c 6c3d d134 2abb
000003f0: 77b0 743d a608 703d 8e30 673d 83c7 6b3d
0.05249975 0.056494102 0.06427838 -0.0008527273 0.057191014 -0.0438537 0.060931575 0.063426435
0.066249065 0.0014019241 0.057641953 -0.004040726 0.0032712321 0.056369342 0.057721138 0.061431617
0.06727772 0.055007085 -0.021743534 -0.031764705 0.06491969 -0.0108371135 0.06111727 -0.030952828
0.05768637 0.063968144 0.046324596 -0.051558625 -0.029599203 0.027134685 0.016910162 0.06338577
0.05603123 0.063581906 0.059577122 0.014920542 0.06416666 0.054559644 0.061530154 -0.024381304
0.062450144 0.056401573 0.061917253 0.0005533231 0.06294935 0.021972017 -0.008744146 -0.0041248244
0.058034465 -0.018794369 -0.044527374 0.000108782995 0.059922177 0.06185297 -0.027887356 0.059945446
0.031741098 0.0034716143 -0.02743634 -0.005446883 -0.032360896 -0.009242925 0.06704147 0.062271785
0.06689087 -0.0082332995 0.05664977 -0.050211035 0.06458466 0.03952041 -0.0078032063 -0.011991057
0.058726437 -0.024445122 0.012982605 0.0022829152 -0.043795682 -0.0011692672 0.052815273 0.06303942
0.057188842 -0.010767403 0.056058478 -0.0068837563 0.06111696 0.057208043 -0.012955694 -0.04741844
0.056473594 -0.015165101 0.058764532 0.056338206 0.0076917685 -0.011162095 -0.0117604155 -0.051608607
-0.0378128 0.062471032 0.054907274 0.05925059 0.052125797 -0.012131699 0.061308783 -0.015089346
0.022730988 0.06302308 -0.016330179 0.0037157105 -0.03816526 0.06387534 -0.0010529648 0.007386072
-0.025740089 0.06127491 -0.039792437 0.05923784 0.061542824 0.056175627 0.059942067 0.057388075
0.060151726 0.06331986 0.060502645 -0.015354193 0.002890894 0.010842627 0.06206696 0.05731346
-0.007120818 0.0059857857 0.0176377 -0.039339658 -0.048393924 0.066388376 0.050102692 -0.048553035
0.06174289 -0.03422273 -0.004022877 0.052962504 0.06516552 0.06306263 0.06641942 0.05591837
0.061071157 0.05421121 -0.013284986 -0.016718104 0.06285311 -0.0004770656 -0.04444569 0.049108453
0.060630433 0.062250517 -0.03511723 -0.021891972 0.057642758 -0.04272915 0.002679813 -0.051826786
-0.03813602 0.053585522 -0.040093392 0.065357514 0.06321448 0.06630113 -0.008204904 0.06346354
-0.029886289 0.057489775 0.058074586 -0.009709281 0.060690492 0.060802568 0.05512509 0.03402371
0.0028693038 -0.020548763 -0.04980027 -0.007014123 0.06342032 0.005306464 0.05952956 0.042645384
-0.034259126 0.06065474 -0.024242107 -0.045788005 -0.03401394 -0.029823488 0.06456472 -0.047141735
-0.017349461 0.062068116 0.064126834 -0.013033298 0.057046685 -0.031874176 0.055652674 0.05388571
-0.028163042 -0.008096891 0.060018484 0.054373175 0.061000768 0.051517602 0.056931246 -0.0015858191
0.057001535 0.05493477 0.055730075 -0.045671366 0.00023537567 -0.0034653048 0.0636372 0.056285504
0.0576263 -0.02230668 0.05762939 -0.011716911 0.061775465 0.012592419 0.045067772 0.003497781
-0.045338403 0.05995872 0.0541993 -0.02149196 0.059732627 0.05956766 0.0607971 0.060003746
0.059381172 0.05731257 0.060169123 0.05369726 0.055669166 -0.01558667 -0.016766569 0.064585045
0.057896864 0.06353753 0.059395734 -0.0058291066 0.06486716 -0.019049479 0.041761704 -0.033308454
0.056962438 0.054618966 0.057735812 -0.0025971422 0.059738602 0.058601998 0.05644279 0.057563316
